TrainData.pth (torch, 7068 bytes, 6 tensors)

l1.weight f4 [8, 80]
00000000: 3d31 353d fd77 053f d529 60be b4ab b3be
00000010: 1c5d 243f 7bac 1a3c 20d2 363f 01e3 e7bd
00000020: 4881 653f 571e 70be 9d00 90be 709d 2abe
00000030: a7ef 5abe 462c af3e 5b44 ed3e d185 6e3f
00000040: 0c3d b93e 5414 fbbd c8c5 bcbd 0baf bfbe
00000050: 1a88 0e3e ddd3 05be 3d85 963e f591 a3be
00000060: be6a 413f d1ca 493e f587 d53e 2701 12bf
00000070: 1468 823d 5509 013f b0ac 2ebf 2c24 433f
00000080: a65a 223f c5de 913c 11c8 7f3e f0d2 02be
00000090: 0f98 a93f 4d01 73bc f879 d7be a0be 3a3f
000000a0: 7aca f6bc 8227 c9bd c9aa ca3e f92c a1be
000000b0: 0066 8ebe 4183 2e3f f231 983d 8a65 58bd
000000c0: 08e7 41bd ad24 8d3f 27c2 953d d553 953f
000000d0: 4355 193d dfdf 06be aded 6dbf 244e 00be
000000e0: 6c3a bbbd c8de 80be 1a3b 89bd c2ac 083f
000000f0: fc42 583f f1f9 06be ed4c 273f b9f8 eebd
00000100: 2d62 053d b849 52bf 0b27 6bbe 471a 353f
00000110: 39f4 233f 2df9 0dbe a5f3 22be 7909 23be
00000120: ce9a 3f3e eb2c 8cbe fac3 463e 3c26 1bbd
00000130: 0e01 643c 8e6d a5bd 472b 113f 8952 953e
00000140: 8e33 183f 0714 aabe 7129 353f 0581 033f
00000150: 948a a2bd 00a1 cc3c ad31 433f 7b1b e83e
00000160: e25a 37be 438f 193f d8e0 0b3f 490e 103f
00000170: 0983 003f 0141 40bf 92a8 0c3f 54ac 2e3c
00000180: c043 40bf daf3 84be 221a 9abe 4ee4 663f
00000190: b5dc 5cbe 525f fc3d 6caf 4cbd 4029 cabd
000001a0: 7465 3abf da4a 183f 2b43 40bf 69b9 8dbe
000001b0: c032 c83d 0b36 213f 8429 9e3f c160 683f
000001c0: 4d32 353f 63dd 283f 0b1c a6be 2d10 e23e
000001d0: d9d9 083d eb47 133f ce69 503f 7486 49bf
000001e0: 74a2 9ebc 5a05 d1be 176a 27bf 5ecd d13e
000001f0: 459d f53e e763 2cbf 2e8f 523e 0d4f c33e
00000200: d7e1 c73e b66d 81bf e00e 9abe 917b b53c
00000210: 64e4 513e 4140 a93e 3866 7e3f 7325 b0be
00000220: 3d47 90be df78 9dbc 911b cabe 3155 bfbe
00000230: 5d42 04bf 9e85 a33e 0cd5 1bbf 3b68 cb3e
00000240: e466 9e3e ac92 813f 71a5 773f 2f16 723f
00000250: 0d01 433e 8bb4 8d3e 336a 873e 7e4e ea3e
00000260: 49c7 843e 54be 233f 2521 503d 9285 093f
00000270: 8cbb 6e3e e09e a13e a7e2 683d c635 853e
00000280: 65ba c03e e5ac 9e3e 4927 87be 33b1 a13e
00000290: 1b28 e6be 117a 75bd aa29 243f 001d bd3e
000002a0: ac09 333f 925b 8d3e 6baf 963e 14cb fe3e
000002b0: c3f0 c63e 1876 3c3e 601c a4be 7d81 8d3c
000002c0: fab3 0e3e 21d8 393f f182 643f 2d55 603f
000002d0: 9860 083e 9320 0dbd 5da8 c43d b3d0 c1be
000002e0: 0b82 44bd 41da 3f3f 5b9d 0b3e 8bad 5dbf
000002f0: 8b6e 473e 109a 223f da63 52bf f1cb 3a3f
00000300: 0e34 2a3f d922 473f 9523 32be a4e5 ba3e
00000310: 84f5 29bf ff4c 35be 1a90 8fbe fdd1 673d
00000320: eded adbc 537e 7abd 45a0 4e3e ed5a 833e
00000330: 410d a73e 5af7 4b3e 8b89 b73d d700 a13d
00000340: 5ad6 a23e 210d a63f 84e0 5d3d 5985 20be
00000350: bf18 b4be 889f f13c c22a 413f 391a 6f3f
00000360: f776 563f 74cb 05bf c47a 1fbe 87d4 7bbe
00000370: 9885 42bf 4e29 163e b246 843e fd0e 4ebd
00000380: c2e6 a8bd 429d 753e 5a78 38be cc94 2a3f
00000390: 4069 73bf 9e5e 643e 8c33 053e f31e 983e
000003a0: 9d7b 1e3f 9914 ec3e adc1 de3e 4f0a 5abe
000003b0: fb5b 0d3d 4801 5a3e 664f 503f 340d 903f
000003c0: 0e9c 72bd 36da 9e3e 6528 0b3f 6a33 f4be
000003d0: 7cc5 523f 5095 dd3e 18e2 2bbe f571 a1be
000003e0: bc9b 4fbe adaa 63bc ad4d 673d 3e12 e5be
000003f0: ce24 90be 9ca9 4a3e 0c5c b43e f4d2 f5be
0.04423641 0.5213621 -0.21890958 -0.35091937 0.64204574 0.009440537 0.71414375 -0.113225944
0.8965039 -0.23449074 -0.28125468 -0.1666162 -0.21380483 0.34213465 0.46341214 0.9317294
0.36179388 -0.12259737 -0.09217411 -0.37438235 0.13919106 -0.130691 0.29398528 -0.31947294
0.755535 0.19706275 0.4170529 -0.5703301 0.063675076 0.50404865 -0.6823225 0.7622707
0.6341957 0.01780642 0.24978663 -0.12775779 1.324953 -0.014831853 -0.42085242 0.7294712
-0.030125845 -0.09821989 0.39583424 -0.31479624 -0.27812195 0.6816903 0.07431401 -0.05283121
-0.04733947 1.1026818 0.07312422 1.1666209 0.037434828 -0.13171338 -0.9294079 -0.12529808
-0.091420025 -0.2516997 -0.06700726 0.5338861 0.8447721 -0.13181283 0.65351754 -0.11668534
0.03256433 -0.82143736 -0.22964112 0.7074322 0.6404453 -0.13864584 -0.15913256 -0.15921582
0.18711397 -0.2737802 0.19410697 -0.03787826 0.013916267 -0.080775365 0.5670666 0.29164532
0.59453666 -0.33218405 0.7076636 0.51368743 -0.07936588 0.024979115 0.76247674 0.45333466
-0.17905763 0.59984225 0.5463996 0.562718 0.50199944 -0.7509919 0.5494472 0.010661203
-0.7510338 -0.25967294 -0.30098063 0.90192115 -0.21568568 0.123228684 -0.049971983 -0.09871149
-0.72811055 0.59489214 -0.7510249 -0.2768052 0.09775305 0.6297309 1.235642 0.90772635
0.7077988 0.6596281 -0.3244327 0.44152966 0.03341088 0.57531613 0.81411445 -0.78720784
-0.019364573 -0.40824395 -0.65396255 0.40976995 0.4797155 -0.6733994 0.20562431 0.38146248
0.3903949 -1.0111606 -0.30089474 0.022153648 0.2049728 0.33056834 0.99374723 -0.3440357
-0.2817935 -0.019222675 -0.39474156 -0.37369683 -0.5166376 0.3193788 -0.6087196 0.3972796
0.30937874 1.0122886 0.9673682 0.945651 0.1904337 0.27676806 0.2644821 0.4576301
0.25933293 0.6396229 0.05081286 0.5371944 0.23313731 0.31566525 0.056856778 0.26017588
0.37642208 0.30991283 -0.2639716 0.31580505 -0.44952473 -0.059930865 0.64126074 0.36936188
0.69936633 0.27608925 0.29430708 0.4976431 0.38855562 0.18404424 -0.32052898 0.017273659
0.13935843 0.7259541 0.892623 0.8762997 0.13318098 -0.034454893 0.09602425 -0.37854537
-0.04797558 0.74942404 0.13634245 -0.8659293 0.19475763 0.6351633 -0.8218361 0.7296744
0.6648568 0.7778755 -0.17396386 0.36503327 -0.6639025 -0.17705153 -0.28039628 0.056596745
-0.021231616 -0.06115563 0.20178325 0.25655308 0.326273 0.19918576 0.08961781 0.07861488
0.31804162 1.2972757 0.054169193 -0.15675868 -0.3517513 0.029495016 0.7545587 0.9339939
0.83775276 -0.5226357 -0.15574175 -0.24592791 -0.759851 0.14664194 0.25835186 -0.050307263
-0.082471386 0.2398577 -0.1801466 0.66633296 -0.95082474 0.22301719 0.13007945 0.29711112
0.6190737 0.46109465 0.43507138 -0.21292995 0.034511548 0.21289551 0.8137115 1.1254029
-0.059230857 0.31025857 0.5435851 -0.47695476 0.8233259 0.4327798 -0.16785467 -0.31532255
-0.20274252 -0.013895673 0.05647056 -0.4474048 -0.2815308 0.19791263 0.35226476 -0.48012507

l1.bias f4 [8]
00000000: da14 123f 4f39 403f 69bd 833f 4d59 8b3f
00000010: 0872 5e3f 8cc1 b73e ea5f 5d3f bd9c 063f
0.57063067 0.75087446 1.0292178 1.0886627 0.8689275 0.35889852 0.8647448 0.52582914

l2.weight f4 [8, 8]
00000000: 6efd 9b3f 7a6b 233f e969 4d3f 2f2c dfbf
00000010: 1977 54be ed10 713f 36c2 8abf 4774 9e3f
00000020: 5333 0b3e aa8b 403d 3013 d2bd efe3 3b3d
00000030: 3ab7 afbe 47fd f7bc 645f 59be ba09 b0be
00000040: 2f28 4fbe 893c de3e e90e 863f d5c8 c03f
00000050: 9fc5 ac3f f129 88bf b46f 97bf 7240 d4be
00000060: d100 4dbf f59e 813f e5be 1f3f 2907 c03e
00000070: 5009 5d3f 9791 b4bf 1236 0a40 2686 933d
00000080: af50 3dbf 9f00 4a3f 61d3 db3f 541d 96bf
00000090: 7cc9 c23f c43e 94be 5327 cfbd 8e53 4e3f
000000a0: 17ef f63f 4e1e 01be 3220 9c3f 1497 fd3e
000000b0: 4bc6 90bf 5802 e73f 3198 be3f d407 b03f
000000c0: 90df 453f e16f c6bf 1a91 1a3f af22 e03f
000000d0: 33cd dd3e c202 33be fb62 8c3d 8558 90be
000000e0: 428d 60bf da32 0c40 0fe1 57bf c5f4 cb3f
000000f0: 876c 473f 9b5e 093f 93f8 843f f399 4cbf
1.2186716 0.6383587 0.8023973 -1.7435359 -0.20748557 0.9416645 -1.0840518 1.2379235
0.13593797 0.047008194 -0.10257566 0.04587167 -0.34319478 -0.03027214 -0.21227795 -0.3438242
-0.20230173 0.4340556 1.04733 1.5061289 1.3497809 -1.06378 -1.1830964 -0.41455418
-0.8007937 1.0126635 0.62400657 0.37505463 0.86342335 -1.410693 2.1595502 0.07203321
-0.7395124 0.789072 1.7173883 -1.17277 1.5217738 -0.28954136 -0.101149224 0.80596244
1.9291714 -0.12609217 1.2197325 0.49529326 -1.1310514 1.804759 1.4890195 1.3752389
0.77294254 -1.5502893 0.6037766 1.7510585 0.43320617 -0.17481521 0.068548165 -0.28192535
-0.8771554 2.1906037 -0.8432779 1.5934073 0.77899975 0.5365998 1.0388359 -0.7992241

l2.bias f4 [8]
00000000: fc1c 4ebe fe96 24be 0d31 973f 378c a5bc
00000010: a4e7 b23d e8c2 0e3f 2533 033f 2cf4 323e
-0.20128244 -0.16073224 1.1811844 -0.020208461 0.08735588 0.55766153 0.51249915 0.17475957

l3.weight f4 [14, 8]
00000000: 6979 c83d 7d92 2b3d 8cf5 27be 1366 81bf
00000010: 69a3 75c0 3c9c dc3e 2c44 dc3e 3290 c8bd
00000020: ea76 483e 2d1e 43be b61e d6be 51c4 603e
00000030: a188 573f 0483 46bf 5dc3 0fc0 4587 59bf
00000040: 1c56 26c0 822d 68be 189b 593f 861a b2bf
00000050: b6d5 9ebf 5dd1 153e d34e 893f afa9 c7bf
00000060: f12d 56bf 8b85 5ebe 43a4 aa3e 99c7 263e
00000070: deb9 1c3f 0e6c 55bf 8373 d7bc 3232 0dc0
00000080: 8c57 25c0 f161 473d 7e72 afbf 4e3c fc3e
00000090: 9fbf 383e 23e8 b2be cbc7 4bc0 2d32 013e
000000a0: 9501 6abf 20f8 12be b92b 5c3f 06fb 4f3d
000000b0: 40af 10c0 442a 28c0 2762 4d3f d7e9 083f
000000c0: cf91 33bf 9a1b c2bd 5075 e0bf aa44 bb3e
000000d0: 05af ffbe 50e5 ae3e 7b0e a9bf bd43 30bf
000000e0: e96a 093f ee80 843d d101 33bf df35 f5bf
000000f0: 2562 b73e 973c eabd 3a00 9abf d6c1 96bf
00000100: 835e 08bf 15af 78be fd2c 7bbf 953c 1fbe
00000110: adcb a63d 5752 563e 370e 8a3e cf42 2ac0
00000120: 2813 673f 9759 13be 5d79 a4bf fd23 c1bf
00000130: 7b3e d6bf 9a25 8e3e a49e 24bf 621d afbf
00000140: fd4e 12c0 3ccb 723d 75c5 c5bf 4e34 1e3f
00000150: 17f8 1bc0 90a4 b23e 2a10 533f 8e26 b3bf
00000160: 75cc 9abf 8cd9 a33e 796e 043f c01b 64bd
00000170: 9f67 3c3f 1613 0ac0 ae56 acbf 4c2d a13e
00000180: e9e5 febf be55 71be 2064 f8bf 93d0 a4bd
00000190: 7467 1ac0 7a22 9d3d 202c 82bf f4c9 163f
000001a0: 6757 d0bf 8d84 0bbe 6d2a 1f3d baf9 3d3f
000001b0: 626b b4bf fed1 81bf daa1 cabe ad4c f13e
0.09788782 0.04188775 -0.16402262 -1.0109276 -3.8380988 0.43087947 0.4302076 -0.09793128
0.19576612 -0.1905448 -0.41820306 0.21949889 0.84192854 -0.77543664 -2.246299 -0.8497203
-2.5990057 -0.2267361 0.8500228 -1.3914344 -1.2408969 0.14630647 1.072718 -1.5598658
-0.8366385 -0.2173063 0.33328447 0.16287078 0.6122111 -0.83368003 -0.026300197 -2.2061887
-2.5834684 0.04867739 -1.3706815 0.4926476 0.18041848 -0.3494273 -3.1840694 0.12616797
-0.91408664 -0.14352465 0.86004215 0.050776504 -2.2606964 -2.6275797 0.80227894 0.5348181
-0.7014436 -0.09477921 -1.7535801 0.36575824 -0.49938217 0.34159327 -1.3207544 -0.6885336
0.53678757 0.06469904 -0.69924647 -1.9157065 0.35817066 -0.11437338 -1.2031319 -1.1777904
-0.53269213 -0.24285538 -0.9811552 -0.15550454 0.08144317 0.20929848 0.2696397 -2.6603277
0.90263605 -0.14389645 -1.2849537 -1.5089108 -1.6737818 0.27763063 -0.64304566 -1.3680842
-2.286071 0.05927585 -1.5450884 0.6179856 -2.4370172 0.34891176 0.8244654 -1.3996141
-1.2093645 0.32001913 0.5173107 -0.055690527 0.73595613 -2.157415 -1.3463953 0.3147987
-1.9913913 -0.23567864 -1.9405556 -0.08047595 -2.4125643 0.076725915 -1.0169716 0.58901906
-1.6276673 -0.13624783 0.03885882 0.7420918 -1.4095271 -1.014221 -0.39576608 0.4712881

l3.bias f4 [14]
00000000: f7e0 5cbe bf44 31bf 4f0b 763f 3cf9 a2be
00000010: b06b 09bf 970c 30bc 4c98 483c 0644 a7be
00000020: 4d99 dcbe a6c6 7abd 440b 103d e7ae 78bd
00000030: 65ff 523e 7200 683e
-0.21570192 -0.69245523 0.96111006 -0.31830776 -0.53679943 -0.010745189 0.012243342 -0.32669085
-0.4308571 -0.061224602 0.035166994 -0.060713675 0.20605238 0.2265642
